models/sign_model.pth (torch, 784038 bytes, 6 tensors)

lstm.weight_ih_l0 f4 [512, 225]
000000 7d 96 39 3d 21 5c b3 bd a2 8c 44 bd f0 b3 36 3d
       0.045309532 -0.087578066 -0.04798568 0.044605196
000010 bd b3 07 bd 40 83 72 bd c2 f2 72 bb f5 63 c6 3b
       -0.033130396 -0.0592072 -0.0037070964 0.0060543963
000020 51 49 8d 3d 46 8c dc bb f8 89 57 3c bf f0 2c 3d
       0.068987496 -0.006730589 0.013155453 0.04222178
000030 70 8e 6e bd cb cc a6 3d a2 95 5d bd f6 8f 21 bd
       -0.058241308 0.0814453 -0.05409778 -0.039443932
000040 96 57 65 bd 02 21 4c 3d 8c 05 ab 3d 9e ab bf bb
       -0.05599173 0.049836166 0.08350667 -0.005849316
000050 3b b7 a2 3d 34 72 79 bb 44 bf 0e 3d 35 c5 b8 3d
       0.07945105 -0.0038062455 0.034850374 0.09021989
000060 7c 2f 72 3c 37 3d 6d bd b3 6e b0 3d f2 8e 86 bc
       0.014781829 -0.057919707 0.08614864 -0.016425584
000070 b0 e4 64 3d 0b d1 b9 3d dc c9 2e 3d 0f 3c 42 bd
       0.055882156 0.09073075 0.042672977 -0.047420558
000080 98 03 0a bb 21 8f 9a 3d cb 36 0b 3d ef d6 dc 3d
       -0.002105927 0.07546831 0.0339878 0.10783183
000090 da fe b3 3d 1f 8c 43 3c b3 5e 45 3d 00 63 db bc
       0.087888435 0.011935263 0.048186015 -0.026780605
0000a0 48 65 fd 3b c0 c5 49 3b 70 0e bc 3c 6b 92 a0 3c
       0.007733021 0.0030788034 0.022956103 0.019601068
0000b0 49 28 56 3e 8a c9 ab bd ad 59 3b bd 34 ab ad 3b
       0.20913805 -0.0838805 -0.04573982 0.00529995
0000c0 be 45 91 3d b5 46 19 3e 89 e3 45 3e 4f 09 a6 bc
       0.070933804 0.14968379 0.19325079 -0.02026811
0000d0 39 93 24 bd 19 ae 1c 3d 00 8f 92 bd ee 92 74 3d
       -0.040179465 0.03825197 -0.07156181 0.059710436
0000e0 82 43 31 3e bf 51 26 bd 26 87 ac bd ff f1 88 3c
       0.17310908 -0.040605303 -0.08424215 0.016716955
0000f0 dd 8e ac 3d 90 ad 8e 3d 63 78 27 3e 29 31 6b 3d
       0.084256865 0.06966698 0.16354518 0.05741993
000100 8b 6c 45 3d 19 f7 e9 3c 7a 58 8a 3d 9f 1f 43 3e
       0.048199218 0.028560208 0.06755157 0.19055031
000110 72 ff 11 3e 64 cc 80 bd 9f ed 4a 3d 50 e0 f1 bd
       0.14257601 -0.062889844 0.04954302 -0.11810362
000120 df 13 30 3d a2 ea e4 bc 51 93 13 3e de 9a 74 3c
       0.0429877 -0.027943913 0.14411665 0.014929501
000130 76 ba 66 bd 82 e8 8f be e4 eb 1f bd dd 49 98 bd
       -0.056330167 -0.28107077 -0.039043322 -0.07435963
000140 9c 2f cb bd 83 eb 0b bc d5 4d 25 bc f4 4b db bc
       -0.0992119 -0.008540037 -0.010089357 -0.026769616
000150 f5 0f 43 3c d6 cc 18 3b e4 73 29 bd 7c 52 9c bd
       0.01190566 0.002331545 -0.041370288 -0.0763292
000160 71 c3 c9 bd 19 d6 df bc c0 c6 10 3d f8 d1 b0 bd
       -0.098517306 -0.02732377 0.035345793 -0.08633798
000170 56 ff 01 bd c6 41 e1 3b 2f 82 c0 bd 3e 97 1d be
       -0.031737648 0.006874296 -0.093998305 -0.15389726
000180 4d 1b 49 bd c9 68 91 bd 1a d2 59 be 0b 9f df bd
       -0.0490983 -0.07100064 -0.21271554 -0.10919007
000190 6e 1f a8 ba 3e 42 0f 3c e1 e6 6c bd 7c 93 07 be
       -0.001282675 0.008743821 -0.05783737 -0.13239855
0001a0 57 18 cb be c2 1c ed bd ff cf 64 bd 6c 0c a1 be
       -0.39667007 -0.11577751 -0.055862423 -0.3145479
0001b0 7c 83 9b bd 33 70 73 bc 3e 25 b0 be 6e a8 09 be
       -0.07593438 -0.014858293 -0.34403414 -0.13443157
0001c0 62 f6 a5 3c d4 f6 90 be f6 d7 8b bd d1 10 92 bd
       0.020259086 -0.28313315 -0.06828301 -0.07132114
0001d0 d7 34 75 be 4c 62 7e bd ea 93 12 3d 85 66 05 be
       -0.23945938 -0.062105462 0.035785593 -0.1302739
0001e0 67 cd d6 bd c7 63 10 3c 6d dd cc bd dd a2 6b 3c
       -0.10488396 0.008812851 -0.10003171 0.014382091
0001f0 1a 3a 1b 3c bd 2c 3c be 6b 54 20 be fb c9 fb bd
       0.009474302 -0.18376441 -0.15657203 -0.12294384
000200 4f f5 15 be d8 7c 6a bc 2d d5 e8 bd 8e fc 8a bd
       -0.14644359 -0.014311992 -0.11368785 -0.06786452
000210 22 df 49 bd 2c 2b 07 be 7f 62 52 bc 65 f7 84 3c
       -0.04928506 -0.13200063 -0.012840866 0.016231248
000220 ee d2 97 ba 2c dc 9a bd 59 06 b9 bd 02 71 49 3c
       -0.0011583248 -0.07561526 -0.09034414 0.01229501
000230 62 c6 29 bd 10 80 04 be 1a 44 dc bd cf ac 4e bb
       -0.04144896 -0.12939477 -0.10755177 -0.0031536107
000240 f4 7a ac 3c 8a a5 87 bd a7 cc 81 3a 70 71 b1 bd
       0.021054722 -0.06623371 0.000990291 -0.086642146
000250 2b 1c 75 3c 19 6f 70 bd 49 58 d8 bd bc e3 44 3c
       0.014960329 -0.0586997 -0.10563714 0.012017187
000260 c7 17 e0 bc b7 02 ff bc e3 f4 8f 3b 52 41 4b bd
       -0.027355088 -0.031129224 0.0043932064 -0.04962284
000270 fb 69 b9 bd f6 b4 2e bd ee db 24 3d 48 b8 7a bd
       -0.09053417 -0.042653047 0.040248804 -0.0612109
000280 03 10 10 be 75 ea 8a 3c ab 64 c6 bd 1a a0 10 be
       -0.14068608 0.016957501 -0.0968717 -0.14123574
000290 ad d2 4f 3c c5 8e 31 be e4 91 7a be 28 80 e2 3e
       0.012684506 -0.17339619 -0.24469715 0.442384
0002a0 fe 14 31 be b2 e9 1d be 3d 00 de 3e 23 be fd bd
       -0.17293164 -0.15421179 0.43359557 -0.12389781
0002b0 4b 94 8d be 98 9b 02 3f 37 1e 3b be 2e c5 68 be
       -0.276522 0.5101867 -0.18273245 -0.22731468
0002c0 be c3 c8 3e 63 07 03 be d4 0b 95 be d3 7d a7 3e
       0.3921184 -0.12795787 -0.29110587 0.32713184
0002d0 10 db 1b be 86 e9 39 be 77 61 b5 3e 9d b8 cf bd
       -0.15220284 -0.18155488 0.35425922 -0.10142634
0002e0 29 79 5a be 34 b1 cc 3e cd f7 d2 bd fc 05 09 be
       -0.21335281 0.39978945 -0.103011705 -0.13381189
0002f0 7d 1b 9f 3e 0e a6 45 be 35 ff 92 be 3d fd df 3e
       0.3107566 -0.19301626 -0.28710333 0.43747893
000300 e7 5b fb bd ba 79 5d be 0e 98 af 3e 8e 7a 71 bd
       -0.12273388 -0.21628466 0.34295696 -0.058954768
000310 25 fd 2f be 0c 5f ed 3e 95 d4 c6 bd 15 e5 59 be
       -0.1718641 0.46361578 -0.097085156 -0.21278794
000320 6a f4 ab 3e 93 bc 1f be 0c 59 8c be 3f 31 a4 3e
       0.3358491 -0.15599279 -0.27411687 0.32068822
000330 c8 91 10 bd f9 80 80 be 42 c7 a3 3e 96 0d 13 bd
       -0.035295278 -0.25098398 0.3198796 -0.03590163
000340 4a e2 8b be 6b 7d b5 3e 2e 0e 09 bd 48 97 89 be
       -0.27321082 0.3544725 -0.03346079 -0.2687323
000350 e9 1f a5 3e 37 4a 12 be c6 ea fc bd 2b 52 65 3e
       0.32250908 -0.14286123 -0.12349467 0.22394626
000360 9f de eb bd eb e7 92 be a3 40 b5 3e 69 04 b0 bc
       -0.11517071 -0.28692564 0.35400876 -0.021486478
000370 f7 7e 65 be da 75 56 3e 44 59 e2 bc 72 9a 50 be
       -0.22411714 0.20943394 -0.027630456 -0.20371416
000380 6e 8d 57 3e e8 c4 11 bd 3e cb a2 bd 6a 9b 5a bc
       0.21050045 -0.035588175 -0.079489216 -0.013342718
000390 be 4d 0a bc 8d f5 1f bc 0e 20 d1 3d 5c 3d 09 bd
       -0.008441387 -0.009763134 0.10211192 -0.033505782
0003a0 03 d9 86 ba b5 7a 73 3d 7a dc 94 bd 90 ad a5 3b
       -0.0010288063 0.059443194 -0.07268615 0.0050560907
0003b0 28 7b b1 bc dc 24 75 bd cc da 3e 3d 7b ed 1e 3c
       -0.02166517 -0.059849605 0.04659538 0.009700174
0003c0 7b 55 de 3a f4 59 9d bd 97 ae 80 3d 03 c5 8a 3d
       0.0016962731 -0.07683173 0.062833 0.06775858
0003d0 26 91 25 bd e8 33 70 3d 7f 45 59 3d 02 a7 2d 3c
       -0.040421627 0.05864325 0.053044792 0.0105989
0003e0 93 9d d0 3d 66 09 b1 3d 0b d3 b7 3b 9e fa e2 3d
       0.10186305 0.08644371 0.005609875 0.11082958
0003f0 a4 12 e6 3c a6 12 b9 3c 35 75 0b 3e 7c 06 96 bd
       0.02808506 0.0225919 0.1361893 -0.073254555

lstm.weight_hh_l0 f4 [512, 128]
000000 a5 6a 0f 3e 15 c6 70 3e d7 73 9c 3d a7 34 e0 bd
       0.14005525 0.23513062 0.07639282 -0.10947543
000010 12 38 33 3c 1b ee 27 be c8 e5 86 3c ad c4 0c be
       0.010938661 -0.16399424 0.01646699 -0.13746901
000020 c0 40 bb bd 1e 02 b9 3d 72 e4 f8 3a 77 4d 16 be
       -0.091432095 0.09033607 0.001898898 -0.14677988
000030 79 30 0e bd 1d 20 df 3d f1 68 de 3d 06 a4 2f be
       -0.034714196 0.10894797 0.1085986 -0.17152414
000040 5a 5a 9f bd 1f 44 64 3e 43 b2 0f be 4c cd d4 3d
       -0.07780905 0.22291611 -0.14032845 0.1039072
000050 71 96 d4 bd b0 c4 2a 3d 70 14 a8 bd ae 7a 2c bd
       -0.10380257 0.041691482 -0.08207023 -0.042109184
000060 14 28 e3 3d 3d db fc 3d 28 6c d9 bd d1 2b 31 be
       0.11091629 0.12346504 -0.10616332 -0.17301871
000070 bd 1c b2 bd 58 5a 12 3d ec 9c ea bd 81 4f 8c bd
       -0.08696888 0.03573069 -0.11455712 -0.06851102
000080 57 11 b4 bb 9c 4d 87 3e aa 18 a5 bd c4 62 1b be
       -0.005495231 0.264264 -0.08061345 -0.15174395
000090 d0 1b 72 bc 6d b7 8c be cf ac 33 3d d5 0d c4 bd
       -0.014777139 -0.27483693 0.043865975 -0.09572951
0000a0 17 ad 3d bc 14 09 60 bd c0 26 09 3e a4 2d af 3e
       -0.011576912 -0.054696158 0.13393688 0.3421451
0000b0 ea 65 84 bd 04 88 5e 3c bc 21 14 be e9 78 e1 bc
       -0.06464751 0.013582233 -0.14465994 -0.027523475
0000c0 51 cb 92 3d d2 7f 8b 3e 7a 90 12 3e b5 e0 d7 3d
       0.07167686 0.27245957 0.14312926 0.10540906
0000d0 2f 6b f9 bd 19 c3 03 3e ea 2a 32 3e b1 e2 8c be
       -0.12178647 0.12867393 0.17399183 -0.27516702
0000e0 a1 a6 1a bc bb 05 29 3c 21 23 62 3d fe 9d 25 be
       -0.0094391415 0.010316308 0.055209283 -0.1617355
0000f0 86 01 ea bc e4 32 af 3c 7a 0c c2 3d 68 13 0f 3d
       -0.02856518 0.021386571 0.09475036 0.034930617
000100 3a d8 06 be c8 97 bb bc f4 fa ad 3d 45 8d 0f bd
       -0.13168421 -0.022899523 0.08495131 -0.035046834
000110 b2 65 93 3e f4 d2 f8 3d c8 3d 5f 3d 7c 5b eb bc
       0.28788525 0.12149611 0.05450228 -0.028730147
000120 98 1b d5 3c e6 32 5c be 20 1e 2f 3e c2 3f c0 bd
       0.026014134 -0.21503791 0.17101336 -0.09387161
000130 80 2a 14 be a2 10 e9 bd a3 18 07 3e eb 78 20 3e
       -0.14469337 -0.113801256 0.13192992 0.15671127
000140 69 d0 f1 bd 7f a8 4c 3d 71 b5 77 bd bd da 41 be
       -0.11807329 0.049965378 -0.06047577 -0.18931098
000150 c6 04 da bd d4 45 24 3d 96 e8 e8 bd de 4f 6b 3e
       -0.10645442 0.040105656 -0.11372487 0.22979686
000160 14 49 a0 3d 2b ab d5 3c 84 c4 4a 3e 43 0e 23 be
       0.078264385 0.026082596 0.19801527 -0.15923409
000170 e9 70 d7 3d 1a ea 44 3e 46 13 df 3c 7b 57 41 3e
       0.10519583 0.19229928 0.02723087 0.18881027
000180 0f 73 13 3e ab cb 57 be c4 fd 3e bd ba 19 b2 3c
       0.1439936 -0.21073787 -0.04662873 0.021740783
000190 fb d0 b3 3b dd 43 c6 bb ca c7 41 bc 5f 92 0d 3d
       0.005487559 -0.0060505704 -0.011827419 0.03456342
0001a0 af 62 46 3c a4 c0 af bc 73 9a aa 3d 38 ed a5 be
       0.012108489 -0.021454163 0.0833024 -0.32407546
0001b0 96 eb 30 be 2d b6 0a bd 88 53 51 bd df e8 d7 3d
       -0.17277369 -0.033865143 -0.051105052 0.105424635
0001c0 80 e2 ec bd 30 66 bb 3d 28 50 c5 bd cf e5 08 bd
       -0.11566639 0.0915035 -0.09634429 -0.033422288
0001d0 c0 64 37 3e b0 b0 a9 3c b3 27 b1 be 07 96 02 3e
       0.17909527 0.020714134 -0.346006 0.12752543
0001e0 0f 0f 93 bc f3 e2 cc bc 64 ce 61 3e e6 bc 09 3d
       -0.017951516 -0.025010562 0.22051388 0.033627413
0001f0 4a 7f 80 bd bd 81 16 3e 6b 4c 02 bd a5 f7 36 be
       -0.062742785 0.14697929 -0.03181116 -0.17867906
000200 b7 b7 1b 3d 1d 46 7f 3e e8 f2 92 bd 84 db 40 bd
       0.038017 0.2492909 -0.07175237 -0.047084346
000210 a3 cf 16 be a5 93 84 3d c0 68 36 3d 74 28 8a bd
       -0.14727645 0.064734735 0.04453349 -0.06745997
000220 14 9b 66 3c cb 97 67 3d 61 74 0f 3e 0a 5c 83 bb
       0.014075059 0.056541245 0.14009239 -0.0040087746
000230 52 04 a3 3d 8a de e5 bc b5 94 fe bd 97 e2 a6 3b
       0.079598084 -0.028060216 -0.12430707 0.0050929296
000240 50 fc 3d 3b 6a 6b b7 bb c0 b1 56 be 40 17 b9 3c
       0.0028989501 -0.0055975216 -0.20966244 0.022594094
000250 d0 1e 7b 3d ee ff 1f be 2d 26 8e bd 21 47 de 3c
       0.061308682 -0.15624973 -0.06940875 0.027133526
000260 f7 5d 24 3e 88 e6 88 bd d3 b3 d2 3c 16 66 99 bc
       0.1605147 -0.06684595 0.025720512 -0.018725436
000270 e5 c0 a4 3d fd 57 68 3d a8 f2 93 3d e7 48 64 3d
       0.08044604 0.056724537 0.072240174 0.055733588
000280 23 37 be bd dd 48 6c bc b4 a6 a3 be 8c e0 48 be
       -0.0928786 -0.014421669 -0.31963122 -0.19616908
000290 77 17 f2 3d 9f b1 37 be 31 91 fc bc 15 61 35 3c
       0.11820882 -0.17938851 -0.030830951 0.011070509
0002a0 ae 02 ef 3d ef 37 93 bd 84 7a 17 be 1d 39 4f 3e
       0.11670433 -0.07188403 -0.1479283 0.2023663
0002b0 95 9e bc 3d d3 cb 40 3e 14 6b e8 bd 83 55 9b 3e
       0.092099346 0.18827753 -0.113485485 0.30338678
0002c0 cc a4 ca 3c 3c 64 94 bd 92 f1 22 3e 03 f5 8b bd
       0.024736784 -0.07245681 0.15912464 -0.06833842
0002d0 3a 01 13 be 25 09 de 3d dc 85 72 3d a2 2d 3a bd
       -0.14355937 0.10841588 0.05920969 -0.045453675
0002e0 17 54 98 3e 54 05 e4 bd 8c 40 c9 3d 4d 7f c1 bc
       0.29751655 -0.11133829 0.098267645 -0.023620272
0002f0 19 cd 4b bd fd bf a3 bc 10 dd 4e 3e e9 31 3f bd
       -0.049756143 -0.019989008 0.20201516 -0.046678457
000300 c6 f8 20 3c 64 4f 57 3e d1 36 c9 3d b0 32 8e 3e
       0.009824937 0.21026379 0.098249085 0.27773046
000310 71 3f c0 3c f4 0a fb 3d 21 18 f9 3d bc 5b da bc
       0.023467751 0.122579485 0.12162805 -0.02665507
000320 da 93 04 3e 7d 5f 1b bc 4f e2 fd 3b b8 7a 42 3d
       0.12947026 -0.009483215 0.0077479254 0.047480315
000330 c4 cd f2 bd 1c 92 4e be ea 2f 6b bd c5 d8 1d 3d
       -0.11855653 -0.20172924 -0.05741874 0.038536806
000340 c1 75 00 bc 77 00 a2 bd 41 47 34 be de 2e 32 bd
       -0.007840575 -0.07910245 -0.17605306 -0.043501727
000350 cb f0 12 bd dc ef 97 3d fa 93 01 3e 23 ba f1 bd
       -0.03587417 0.074187964 0.12654105 -0.11803081
000360 86 c3 f5 3d c8 63 09 bd 93 a2 9a bd 45 47 1b be
       0.12000184 -0.033542424 -0.0755054 -0.15163906
000370 b1 ca d0 3d 58 85 b5 bd 5d 1b b4 3c 3a cc 99 bd
       0.1019491 -0.08863324 0.021985704 -0.07509656
000380 ad 3a 00 3e 80 96 91 bd 99 3f 12 be 48 cc 5c bd
       0.12522383 -0.07108784 -0.14282073 -0.053905755
000390 1a 84 4c bd 7e 4b ac bd 7a ee 13 bd 26 76 55 3d
       -0.04993067 -0.084128365 -0.0361161 0.05211463
0003a0 6d 47 e9 3d e6 2b 31 be 00 c9 5b be 5e b7 f6 3b
       0.113905765 -0.17301902 -0.21463394 0.0075291833
0003b0 08 f8 1e be 7f e4 61 3e 25 0d 34 be 4c f1 fa 3d
       -0.15524304 0.2205982 -0.17583139 0.12253055
0003c0 ca 9b 48 3d 1c 5b 75 3e a3 ef 0d be d0 ac 73 bd
       0.048976697 0.23960537 -0.13860945 -0.05949098
0003d0 06 52 8e be a2 99 4c 3e 97 68 6a bd 5e f8 cf bd
       -0.27796954 0.19980481 -0.05722865 -0.10154794
0003e0 88 d4 a5 bd 96 c2 91 3d 19 b5 1a 3d ee 7a 97 bd
       -0.08097178 0.071171924 0.037770364 -0.07396494
0003f0 97 88 52 3e 56 4a 8b 3d be c9 cc 3c 60 5c 31 bc
       0.20559917 0.06801288 0.024998542 -0.010825247

lstm.bias_ih_l0 f4 [512]
000000 86 eb 78 3d 22 74 1b 3d cd 91 14 bb 40 67 c1 3d
       0.060771488 0.03795255 -0.0022669912 0.094435215
000010 3e 6e ef 3d 24 30 02 3d 89 01 30 3e ce d5 21 bd
       0.11690949 0.03178419 0.17188086 -0.03951054
000020 bc 51 9b bc e6 45 52 bd 3b 86 96 3c a7 20 1a 3e
       -0.018959872 -0.05133619 0.018374553 0.15051518
000030 9e 03 2f 3d 87 4a b2 3d 29 25 3b 3e b1 1f b4 3c
       0.04272806 0.08705621 0.18275894 0.021987768
000040 44 39 91 3d 20 a0 fc 3d ca e2 62 3c e7 15 de 3d
       0.07091001 0.12335229 0.013848016 0.10844021
000050 77 eb 11 bb d6 b8 9a 3a cb 75 2f 3e 23 8b d8 3d
       -0.0022265592 0.0011804353 0.17134778 0.10573413
000060 19 bc 20 bd bb 50 02 3e b1 a7 a0 3d f6 d0 91 3d
       -0.039241884 0.12726109 0.078444846 0.07119934
000070 29 4e f4 3d c4 b9 2b 3d b1 4a 1e 3c f0 6f 43 bd
       0.1192897 0.041925207 0.0096613625 -0.047714174
000080 a8 f8 8b 3d dd 7c 34 3e 74 8c a2 b9 2a ee 99 bc
       0.06834537 0.17625757 -0.00031003694 -0.018790323
000090 d2 65 11 3d 0f eb da 3d 04 0b 32 3d 27 7f 0e 3e
       0.035497494 0.10689365 0.043467537 0.13915692
0000a0 67 9e f0 3c 97 87 8d bc 4d cc aa 3b d4 47 ed 3d
       0.029372407 -0.017276568 0.005212343 0.11585966
0000b0 cd d7 3b 3d 70 5c e0 3c f8 04 90 3d 36 e1 0a 3e
       0.0458601 0.027387828 0.07032198 0.13562474
0000c0 17 27 12 3c 96 79 10 3e 8c e4 1c bd 32 00 73 bd
       0.008920453 0.14108881 -0.038303897 -0.05932636
0000d0 44 f7 b7 3d aa 19 3c 3d d1 72 ee 3d d2 c8 3b bc
       0.08982709 0.045922913 0.11642993 -0.0114614535
0000e0 64 8e a1 bd dc d2 1c 3d 39 fe 0b 3d 62 bc 67 ba
       -0.07888487 0.03828703 0.034177992 -0.0008840022
0000f0 e5 76 1f 3e 10 94 e0 3d 92 75 9b 3b 7c f7 ba 3d
       0.15572698 0.10965741 0.00474424 0.09129235
000100 ed 8b 70 3d 0e d1 5a bd c4 15 fc 3d 98 c3 6f 3b
       0.058727194 -0.053422026 0.12308839 0.0036585089
000110 e9 6d b3 3a 18 be 66 bd d5 12 8c bb 41 ef 57 3d
       0.0013689372 -0.05633363 -0.004274706 0.052718405
000120 1a 60 12 bd 0c a3 2d bd fa 42 5a 3e 0b fd bc 3d
       -0.03573618 -0.04239182 0.21314612 0.092279516
000130 eb dd 65 3d 38 2a 71 3c 1c a4 de 3c af bd d6 3c
       0.05611984 0.014719538 0.027177863 0.026213495
000140 f0 0a b1 3d 31 41 19 3d 58 79 21 3d 82 7d 02 3e
       0.08644664 0.037415687 0.039422363 0.1274319
000150 db b6 73 3d b8 5b cd 3c de ec a5 3d d6 85 5a 3e
       0.059500556 0.025068149 0.081018195 0.21340117
000160 ce c4 2b bd cf e1 c1 bc be 9c f0 3c a5 af d4 bc
       -0.041935734 -0.023667244 0.029371615 -0.02596266
000170 dc f0 0f bc 51 67 52 3c 3b f9 01 3d 2f da 34 3d
       -0.008785453 0.012842015 0.031731825 0.04415339
000180 49 5d 6c bc ad eb 0d 3a c2 1f 00 3d 3a 6b e7 3c
       -0.014426538 0.00054138416 0.031280287 0.028249372
000190 cd 5b 21 3d e2 6f 39 bb ff 42 aa 3c ac 9d 13 bc
       0.03939419 -0.0028295447 0.0207839 -0.00900976
0001a0 69 15 0e bd eb 14 4d 3d 43 77 8e 3d 47 6a d2 3d
       -0.034688387 0.050068777 0.06956341 0.10274177
0001b0 ab 6b 71 3d 3a 38 15 3e 9f b0 64 bd ef 4b 62 3d
       0.05894057 0.1457223 -0.0558325 0.055248197
0001c0 e7 f0 3d 3e d5 48 8f 3d 46 f8 20 bc ba d1 8f 3d
       0.18548928 0.069963135 -0.009824818 0.07022424
0001d0 44 92 93 3d 31 2c 09 be c5 60 da 3d 2a c9 ff 3d
       0.07205632 -0.13395764 0.106629886 0.12489541
0001e0 94 9c 68 3d 21 a7 1a 3d 61 51 df 3d 2d 1a 7a 3d
       0.05678995 0.037757043 0.10904194 0.06106012
0001f0 e0 bf 4a 3d f6 8f c7 3d ef c3 3e bd 16 00 16 3e
       0.049499393 0.09744255 -0.046573576 0.1464847
000200 a5 be 02 bd 53 fd be 3d 43 e7 a7 3d 90 12 b3 3d
       -0.031920094 0.093256615 0.081984065 0.08743775
000210 f2 30 22 3e 69 4e 8b bd 07 cc e3 bc e8 53 55 3d
       0.15838984 -0.06802065 -0.027807249 0.052081972
000220 ab a1 01 bd a1 e3 f8 3d 56 98 95 3d 33 5e 40 3e
       -0.03164832 0.12152792 0.073044464 0.18785934
000230 20 91 3f 3c 8e 95 0e 3e 77 30 13 3e 57 91 68 3d
       0.011692315 0.13924238 0.14373957 0.056779232
000240 4b 70 32 bd 70 e5 29 3e 54 5d 00 3b d8 07 a0 3d
       -0.043564122 0.1659143 0.0019586878 0.07813996
000250 c4 2b f6 3d fc 13 d0 3c a3 f6 b4 3d 00 05 a4 3d
       0.120200664 0.025400154 0.08836105 0.08008766
000260 4b 6b 7f 3b 4d 58 f6 3d 61 ce ac 3d 93 ca 24 3d
       0.0038973864 0.12028561 0.08437801 0.040232252
000270 5b a6 b0 bb 59 df 5a bd 1a 9c 07 bd d3 8d 0d 3c
       -0.005390925 -0.053435657 -0.033107854 0.008639771
000280 30 ad b9 3d 7f f6 8f 3d fc 06 0d 3d 9b 3f 08 3c
       0.09066236 0.07029437 0.03443049 0.008315946
000290 96 74 2a 3c bd 88 8c 3d 1e 11 ab 3c a9 92 d4 3d
       0.010403773 0.06862018 0.020882186 0.10379536
0002a0 ee 1f 42 bd 10 a6 f5 3d 24 da 54 3d ba c7 b3 3d
       -0.04739373 0.119945645 0.051965848 0.08778329
0002b0 31 88 9e 3d 12 4e 07 3e 14 32 74 bc 7c 1b c7 3d
       0.0774082 0.13213375 -0.014904518 0.09722039
0002c0 58 fc 1f bc aa 92 a8 3d fb 24 b7 3d 3d bd 61 3d
       -0.009764753 0.08231099 0.089426 0.055112112
0002d0 3d fb 74 3c 49 e0 d7 3c 93 5f 16 3d e9 4e d5 bc
       0.014952478 0.026352065 0.03671224 -0.026038604
0002e0 94 db 03 be 44 c2 b8 3d 43 64 08 bd 14 e6 91 3d
       -0.12876731 0.09021428 -0.033298742 0.07123962
0002f0 40 44 c8 3d 82 39 4f 3e fd ad 49 3d 33 dd a8 3d
       0.09778643 0.20236781 0.049238194 0.082453154
000300 33 af b0 bc f0 a2 d0 bc 4f 79 2d 3b d1 05 ee 3d
       -0.021567916 -0.02546832 0.002647001 0.11622203
000310 ca b1 9d 3d f7 e2 d6 3c e1 37 ef 3d 92 4a 6e 3d
       0.07699926 0.026231272 0.1168058 0.058176585
000320 db bd 02 3e 9b a1 3d 3d 6c 71 cf 3c f7 98 fd 3d
       0.12767737 0.046296697 0.025322638 0.12382691
000330 a9 36 9e 3b 65 4d 71 3c 8a bf 89 3d 5a ff 89 3d
       0.0048282933 0.014727925 0.06725986 0.067381576
000340 6d 03 2b 3d 99 84 a1 3d 62 4d 64 3d 8d 9f 1c 3d
       0.041751314 0.07886619 0.05573786 0.038238097
000350 aa 9d 20 3e 18 7f f3 3d db 2b b1 3d 1b 43 1a 3d
       0.15685144 0.118894756 0.08650943 0.037661653
000360 ec 90 4a bd 39 7e 18 3e f4 37 7d b8 52 f9 4e bd
       -0.049454615 0.148919 -6.037201e-05 -0.05053074
000370 11 00 bf 3c 26 e3 80 3d 55 50 5d bd dd f4 f6 ba
       0.023315461 0.06293325 -0.05403169 -0.0018841285
000380 9f 39 8a bd 6d ea cd 3c 1d 4d 0e bc 0d 22 5a 3d
       -0.067492716 0.025136197 -0.008685377 0.05325513
000390 05 6e 8c bd 25 7d 8b 3d 37 8e 57 3c d4 28 a4 3d
       -0.06856922 0.06810979 0.013156465 0.080156
0003a0 e3 b9 e3 3d 7e 4d a5 bc 0c 1b fc 3c 05 f2 0a 3d
       0.111194395 -0.020178553 0.030774616 0.033922214
0003b0 0c 89 7b 3c f8 c5 43 3d 55 9a d3 bc f7 5f b3 3c
       0.015352499 0.04779622 -0.025830427 0.021896346
0003c0 0e 6d c3 3d 84 84 89 3b 41 3a 90 3d 10 a6 29 3d
       0.09542285 0.0041967053 0.07042361 0.041418135
0003d0 0e 53 31 3d 94 73 c0 3c 6a 8f fb 3d a3 ad ec bd
       0.043292098 0.023492612 0.122832134 -0.11556556
0003e0 82 e4 95 3c 61 7f 40 bd ae 18 9c bd ba da 76 3d
       0.018297438 -0.046996478 -0.07621895 0.060267188
0003f0 df d5 bf bc 57 5e 3c 3e 0a e0 9f 3d 3c 14 1e bd
       -0.023417411 0.18395363 0.07806404 -0.038593516

lstm.bias_hh_l0 f4 [512]
000000 0d 04 da 3d 24 1c a0 ba 47 64 c5 3c ae 0e c0 3d
       0.10645304 -0.0012215418 0.024095668 0.093778
000010 46 2a c5 3d 94 50 c5 3d e5 21 74 3e 66 08 8d 3d
       0.09627204 0.0963451 0.23841055 0.068863675
000020 ac db 2c bd 77 6d d1 bb f2 9d b0 3d 65 60 28 3e
       -0.042201683 -0.006391223 0.08623876 0.16443022
000030 0a cb 9b 3d ad 2d 37 3d 02 8e 94 3d f7 76 01 3d
       0.07607086 0.044721294 0.07253648 0.031607594
000040 01 e2 11 3c 6e 61 d6 3d 3a ce f1 3c 6c 71 91 3c
       0.008903981 0.10467802 0.029517282 0.01775428
000050 d1 01 3b bb 7d 9b ec 3d 6f 85 ad 3d ca d5 71 3d
       -0.0028535018 0.115530945 0.08472716 0.059041776
000060 07 e5 43 3d d3 7c 0b 3e b9 60 b0 3d ec 23 89 3d
       0.04782584 0.13621835 0.086121984 0.06696305
000070 d1 ad 43 3d d4 8f 16 3d 74 e4 b9 bd f9 68 c5 3c
       0.047773186 0.03675826 -0.09076777 0.024097906
000080 c0 07 31 3c db f5 0b 3e ce 3d 49 3c 59 14 fc 3c
       0.01080507 0.13668005 0.012282802 0.030771421
000090 7a 42 ab 3d 73 46 09 3e 45 a5 3e 3e 47 78 b6 3d
       0.08362289 0.1340578 0.18617733 0.0890966
0000a0 10 48 8e 3d 46 98 f0 bc b3 de f8 3d fc 18 28 bd
       0.069473386 -0.029369485 0.121518515 -0.041039452
0000b0 a6 21 a8 3d 1d 43 2c bd a1 d7 19 3e ba 16 cd 3d
       0.08209543 -0.04205619 0.15023662 0.100141004
0000c0 41 3e 58 3d e2 fa d4 3d fc 22 a8 bd 58 68 90 bd
       0.052793745 0.103994146 -0.08209798 -0.07051152
0000d0 39 73 f0 bc 68 81 76 3c 40 97 97 3d af 84 7b bd
       -0.029351817 0.015045501 0.074018955 -0.061405834
0000e0 44 9d d9 bd 7f a5 06 3d bd db 19 3e 3f 29 96 3d
       -0.10625699 0.032872673 0.1502523 0.07332086
0000f0 05 9c ef 3d da 8a c3 3d d6 89 fa 3d bf 23 91 3c
       0.1169968 0.09547968 0.12233321 0.01771724
000100 35 5b d2 3d cc f7 9c bd b0 46 a8 3d f6 66 de bc
       0.102713026 -0.07664451 0.082166076 -0.027148705
000110 dd ab af 3d ba 38 54 bd f1 07 08 3d c2 e3 19 3e
       0.08577702 -0.05181191 0.0332107 0.15028289
000120 e3 d9 40 3b fa 36 9d bc 76 9b 02 3e 16 81 f1 3d
       0.0029426746 -0.019191254 0.12754616 0.11792199
000130 12 56 cb 3d 97 2f 19 3e 57 28 da 3d 2f 2c 7f 3b
       0.09928526 0.1495956 0.106522255 0.0038936248
000140 74 27 d5 3d 48 79 15 3d 53 41 f8 3c 61 bd 08 3e
       0.10407916 0.036492616 0.030304587 0.13353492
000150 1a f3 9b 3c b7 f4 48 3d 04 3e d5 3d 36 cc 76 3e
       0.019036818 0.049061503 0.10412219 0.24101338
000160 de 09 8a bd 0e 5a 5b 3d e0 28 02 3e 47 f9 23 3d
       -0.06740163 0.05355268 0.12710905 0.04003265
000170 72 06 5d 3d 6a 8f 8b bd d4 26 4b 3d 17 a6 41 3c
       0.053961225 -0.068144634 0.049597576 0.011819384
000180 d3 b9 d5 3c 35 10 0b 3d da 94 42 3d 60 6a 44 3c
       0.026089584 0.033951003 0.047505237 0.011988252
000190 85 35 a2 bd cd 61 0b 3e de 60 56 bd 46 1b aa 3d
       -0.07920364 0.13611527 -0.052338473 0.08305983
0001a0 8f 8a f5 3c 05 6c 2c 3d 08 c5 2e 3b f0 73 5b 3d
       0.029973296 0.042095203 0.0026667733 0.053577363
0001b0 c4 f4 73 bd c4 66 91 3d db 48 54 bd 7d f5 24 bd
       -0.0595596 0.07099679 -0.051827293 -0.04027318
0001c0 a6 01 32 3e 34 27 a2 3c b9 d9 cf 3d 20 0c 2d 3d
       0.17383441 0.019794084 0.10148949 0.04224789
0001d0 15 b1 73 3c c0 f1 16 be 53 62 15 3e 66 49 ad 3d
       0.014873763 -0.14740658 0.14588289 0.08461265
0001e0 dc 87 ff bc 83 13 8c 3d c4 64 f4 3c a1 cb d1 3d
       -0.031192712 0.06839659 0.029833205 0.10243917
0001f0 de 2e c8 bd 63 43 07 3e 73 4a bd 3c 92 2b 2b 3e
       -0.09774564 0.132093 0.02310679 0.1671584
000200 61 9c c4 3d 60 ef cc 3c 22 c0 b7 3c d4 e4 b1 3c
       0.096001394 0.025016487 0.022430483 0.021715559
000210 00 df 06 3e c8 1f a1 3d ba 0a 90 3d be d7 2b bd
       0.13171005 0.0786739 0.07033296 -0.041953795
000220 8f 33 bd 3d 76 f2 91 3d 16 97 2f 3d 35 75 2d 3e
       0.0923835 0.07126324 0.042868696 0.16939242
000230 ab 18 0b bb 91 07 e3 3d 2a 51 da 3d 3e 74 b5 3b
       -0.002122442 0.110854276 0.10660012 0.005537539
000240 8a 8b 97 3d cd 49 53 3d c4 2f 8c 3b 40 af a2 3d
       0.07399662 0.051584054 0.004278155 0.079435825
000250 11 83 5b 3d cc 38 05 3e 5f 3e 10 3d 3e 17 98 3d
       0.05359179 0.13009948 0.03521573 0.07426308
000260 06 f0 0b 3d e7 2e e2 3d 51 98 e5 3d 25 07 7b 3d
       0.03416445 0.11044102 0.11210693 0.06128611
000270 fa 64 da 3d 1c 01 fd bc 50 3c 77 bd 40 90 90 3c
       0.10663791 -0.030884318 -0.060360253 0.017646909
000280 0a 77 9d 3d 55 53 9f 3c 1b b5 1f 3e f4 1d 96 3d
       0.076887205 0.019448915 0.1559643 0.07329932
000290 e6 d9 02 3e 59 44 b1 3d 83 98 46 3d 08 39 ef bb
       0.12778434 0.086556144 0.04848529 -0.0073005
0002a0 85 84 f1 3c 6f 5c 41 3d 17 20 a0 3b a4 9f 9e 3d
       0.029482136 0.047207292 0.004886638 0.07745293
0002b0 5f 60 36 bd c9 94 de 3c 7a d5 db 3d f2 af 2d bd
       -0.0445255 0.027170556 0.10734077 -0.042404123
0002c0 42 0a 88 bc 55 db cd 3d 6b 11 b7 3d d5 19 0c 3e
       -0.016606454 0.100516 0.08938869 0.13681729
0002d0 e4 cc bc bc 8a 46 d0 3d 5e a2 f5 bc b0 65 d9 3b
       -0.023046918 0.10169704 -0.02998465 0.0066344365
0002e0 19 85 90 bd 00 1f f5 3d 41 41 83 3d d2 6a 95 3d
       -0.07056636 0.119688034 0.064089306 0.07295765
0002f0 80 20 e1 3d ca 49 23 3e 92 dc a7 3d e0 b5 ff bc
       0.10992527 0.15946117 0.08196367 -0.031214654
000300 40 99 05 3e e2 f3 f7 3c aa 94 dc 3d 80 2c dd 3d
       0.13046741 0.03026766 0.10770543 0.10799503
000310 e2 c4 df 3d df c3 b3 3d 04 75 7e 3d c3 1f ad 3d
       0.10926224 0.08777594 0.062123314 0.08453324
000320 73 f1 5a 3d 73 3e c8 3d 36 6d 0d bd 76 c9 00 3e
       0.05345292 0.09777536 -0.03452798 0.12576851
000330 8b 6a 8f bb 82 04 06 3e 69 15 b6 ba e4 e0 02 3e
       -0.0043767146 0.13087657 -0.0013891879 0.12781101
000340 11 7f ee 3d f7 53 c4 bd 52 dd 4f 3d 27 e4 eb 3c
       0.1164533 -0.095863275 0.050748177 0.028795315
000350 58 ad 1d 3e 29 2a 4b bc 8d 3d bf 3d ee 9e 90 3d
       0.15398157 -0.0124001885 0.09337912 0.070615634
000360 d2 a0 08 bc aa 1c 9d bb f0 55 54 3d 0e 9b cd bd
       -0.008339124 -0.004794677 0.05183977 -0.1003934
000370 98 f6 0a 3e ab 71 30 3c 88 16 bd 3d e9 a2 f1 3d
       0.1357063 0.010769288 0.09232813 0.11798651
000380 2a a4 a1 3b a7 30 04 3d 68 c4 b4 3d 94 6e a4 3d
       0.0049329 0.03227296 0.08826524 0.080289036
000390 9d 82 af bc c2 a7 e6 3d 43 f7 47 bd 17 bf d3 bc
       -0.021424586 0.11262466 -0.04881979 -0.025847955
0003a0 64 18 a6 3d e2 29 bf bc 00 b5 ee 3d 87 51 69 3d
       0.08110121 -0.023335401 0.11655617 0.056962516
0003b0 5f f4 ee 3d d5 6c e2 3d 48 01 17 3b 08 33 83 b9
       0.11667704 0.11055914 0.0023041535 -0.00025024288
0003c0 98 26 4f 3e 3d 70 09 3e e2 73 c5 3d b1 8c 9c 3c
       0.20229566 0.13421722 0.096412435 0.019110056
0003d0 6d 13 0a 3d db 1c 0b 3e fe 56 84 3d 43 2c 15 be
       0.033709932 0.13585226 0.06461905 -0.14567666
0003e0 64 63 1d 3e ad 15 ac bb 27 0b a1 3d 28 bb b6 3d
       0.15369946 -0.0052516074 0.07863455 0.08922416
0003f0 ee bb b1 3d 64 c4 c5 3c e4 38 df 3d 5e c1 29 3d
       0.08678423 0.024141498 0.10899523 0.041444175

fc.weight f4 [103, 128]
000000 d3 72 9b be 35 dc 0c 3e c8 09 91 bd d0 9c 05 be
       -0.3036104 0.13755877 -0.07081944 -0.130481
000010 b0 80 34 3d d5 78 69 bd 77 b2 d6 bb bd e1 a3 3d
       0.04406804 -0.057 -0.0065520364 0.080020405
000020 11 05 aa bd a9 11 aa 3c 46 a5 6a be 6f 04 61 bd
       -0.083017476 0.020760374 -0.2291461 -0.05493587
000030 66 45 33 3e 43 dd 8c be 5f 41 b0 3b 1f 8c 56 be
       0.17506942 -0.2751256 0.0053788866 -0.2095189
000040 f6 e4 26 bf 70 55 07 3e 97 a1 66 be fb 0a e7 3e
       -0.65193117 0.13216186 -0.22522579 0.45125565
000050 60 f1 0f be d6 d6 bf 3c 50 cd 86 bd 60 75 fa bb
       -0.14056921 0.023417871 -0.06582129 -0.0076433867
000060 4d 1e a4 3c 6d 74 e7 3d be fb 99 bd 41 86 8f bd
       0.02003398 0.11301503 -0.07518719 -0.07008029
000070 8f f2 8d be 3f 51 d4 3c 7c ed 17 bd 93 60 25 bd
       -0.2772412 0.025917647 -0.037091717 -0.040375303
000080 92 77 58 be a0 cf c3 be 90 bf 95 3d df ae bd 3d
       -0.21139362 -0.38244343 0.07311928 0.0926187
000090 24 77 8a bd 4f 04 10 3e e9 17 3f 3d 85 20 3e bd
       -0.067610055 0.14064144 0.046653662 -0.04641773
0000a0 1c 2a 71 3d 8e e3 48 bd c9 41 b0 bd ae 2d bc 3c
       0.05887805 -0.049045138 -0.086062975 0.022971
0000b0 b6 3c 9b bd a0 1d f8 3b 9f 12 7c 3c 64 6a e7 3b
       -0.07579939 0.007571891 0.015385299 0.0070622433
0000c0 63 5a 03 3d 45 87 b3 3d d0 99 03 bc ec 2d 8f 3e
       0.03206862 0.08766035 -0.008032277 0.27964723
0000d0 d0 ff 72 3e f0 25 08 3c 64 80 52 3d f0 0d 71 bd
       0.23730397 0.008309826 0.051391974 -0.058851182
0000e0 ff c7 00 be c2 f0 5c be 07 1f ea 3d 69 a7 5e be
       -0.12576292 -0.21576217 0.11431699 -0.2174355
0000f0 f4 5c a5 bd 89 7d d7 bd 78 3c 0b 3e 6b 29 62 3d
       -0.0807437 -0.10521991 0.13597286 0.05521528
000100 0f 8d e8 bd 99 67 5d 3e 43 9f 50 3e 9b f5 76 3d
       -0.1135503 0.2162155 0.20373254 0.06029282
000110 66 f9 c8 3c a6 50 bd 3c e2 4b d1 3c 72 3d cf be
       0.024532985 0.023109745 0.025548879 -0.40476567
000120 c3 df 2f 3e 44 af 8d 3c 9f 54 34 3c 4c f5 f8 bd
       0.17175202 0.017295487 0.011006503 -0.12156162
000130 65 58 89 be b4 28 0f bd 24 64 0b be 1f 6e f1 bc
       -0.26825252 -0.034950927 -0.1361242 -0.029471455
000140 5b ef 6a be a4 3e 97 bd 69 45 0e be 3f 53 d4 bc
       -0.2294287 -0.073849946 -0.13893665 -0.025918601
000150 84 56 bc bc 5b 54 76 3d b1 cd 49 be 9f b5 8d be
       -0.022990473 0.06013904 -0.19707371 -0.27677628
000160 10 34 0a 3a 61 14 00 be d5 1f c0 bc 5b c4 97 3d
       0.000527204 -0.12507774 -0.023452679 0.07410499
000170 de 50 48 3d 1d 39 21 3e 4a d7 04 3e b4 b2 83 3e
       0.048905246 0.15744443 0.12972751 0.25722277
000180 69 03 45 3d 04 b9 ad 3c d5 71 46 bd 75 fa 81 be
       0.048098955 0.021206386 -0.048448402 -0.25386396
000190 89 2a 9b 3e 93 40 2c be bd 72 9d bd bc 2b 6c bb
       0.3030589 -0.16821508 -0.076879 -0.003603681
0001a0 80 ef 63 3e e2 f6 0c 3c f9 b1 a7 3e 2f 6c 89 bb
       0.22259331 0.008603783 0.3275297 -0.0041938047
0001b0 fa 1f 27 be cf 83 ae 3d f2 0c d1 bc 87 a0 71 bd
       -0.16320792 0.08521234 -0.025518868 -0.05899098
0001c0 70 48 bd 3d 42 16 82 3c 6c 3c 61 bd 96 0b 10 3e
       0.09242332 0.015879754 -0.054989263 0.1406692
0001d0 5d 1d 29 be bc a2 2e 3d 3a f0 eb 3d 07 8c 31 be
       -0.16515107 0.042635664 0.11520429 -0.17338572
0001e0 8c fb 1a be 86 d2 26 bd 3b a8 50 3e 37 40 a6 bc
       -0.1513502 -0.040728115 0.20376675 -0.020294292
0001f0 d9 35 9c 3d dd e9 1f bd 8b 93 a2 3d db 1c 56 3c
       0.07627458 -0.03904139 0.07938298 0.013068403
000200 15 ad da 3d 71 ae 90 bd 1c 94 db 3d 36 ea 09 bd
       0.10677544 -0.07064522 0.10721609 -0.033670627
000210 43 42 be 3d ee f7 dc bc 2e 10 aa bd 27 f3 7e be
       0.09289982 -0.02697369 -0.08303867 -0.24897443
000220 5d c5 26 3e 06 0a 92 3e 4f 21 da 3d 21 9e c3 3c
       0.16286226 0.28523272 0.10650884 0.023879113
000230 f4 27 70 3e c4 ce 23 bd 1c 98 cb 3d 0b fc 82 bd
       0.23452741 -0.03999211 0.09941122 -0.0639573
000240 53 b2 f8 3d 79 d9 8a 3d 60 42 fb bc c5 d3 e0 3b
       0.12143388 0.06779761 -0.030671299 0.0068611824
000250 d6 e5 18 3f bb 7f d4 bc c1 ad a0 3e 50 29 c7 bd
       0.597257 -0.025939813 0.31382564 -0.097246766
000260 27 d6 ea 3d 00 39 5a bd 99 14 1d 3e c9 55 c8 bc
       0.114666276 -0.053277016 0.15339889 -0.024454968
000270 27 12 92 be 39 53 74 be 93 eb 97 be 27 84 b9 bd
       -0.28529474 -0.23859872 -0.29671916 -0.09058409
000280 a7 61 0e 3e 4f 33 07 3e 10 8b 1c 3d b6 60 60 be
       0.13904439 0.13203166 0.038218558 -0.21911892
000290 5d a7 0e be 79 ce 2d 3d d2 d0 df bd ca 03 f4 bb
       -0.13931032 0.042433236 -0.10928501 -0.0074467408
0002a0 0d a0 8a 3d 36 60 4b 3e 01 2b 2a 3e fb bb 0f 3e
       0.067688085 0.1986092 0.16617967 0.14036553
0002b0 a6 63 28 bd e7 ee c7 bb 98 71 9f be bc df 12 bd
       -0.041110657 -0.0061014774 -0.31141353 -0.0358579
0002c0 65 5f e4 bd 2c 69 e6 3d 79 70 fb 3d 4b ce f6 3c
       -0.111510076 0.11250529 0.12277312 0.030127665
0002d0 0f ad d4 3c c5 3c 0f bf cd 9c a5 3e b0 32 35 3e
       0.025961427 -0.559521 0.32346192 0.17695117
0002e0 bc db 2a 3e 14 75 1b 3d ac 45 25 bc 78 01 84 3e
       0.16685385 0.03795345 -0.010087412 0.2578237
0002f0 e6 2f 2d 3c a0 85 6b be fb 4c 7f bc 21 38 b2 3c
       0.010570502 -0.23000193 -0.015582318 0.02175528
000300 eb 6c e9 bd c9 db e0 3b d5 f5 4a be 12 a0 fe bd
       -0.113977276 0.006862138 -0.1982034 -0.12432875
000310 fc 12 94 3e 93 95 24 3c cf d0 5c bd 72 89 f4 3d
       0.28920734 0.010045427 -0.053910073 0.11940278
000320 64 a5 34 be f4 20 ea 3c b3 1c d3 3e 15 f4 8c bd
       -0.17641217 0.028580166 0.41232833 -0.068824925
000330 1c 2d 5f bd c2 1d 97 3d 71 63 9a 3d 3d 16 5f 3e
       -0.05448638 0.07378723 0.07538498 0.21785827
000340 c7 99 ee 3d bd 82 2c 3e 94 aa e8 3d ed a7 9d 3e
       0.116504245 0.16846748 0.1136066 0.3079218
000350 63 88 1a bd 57 fe 36 be a2 c6 6c bd 0b 8c 5e 3e
       -0.037727725 -0.1787046 -0.05780662 0.2173311
000360 0d 5f 76 3d 3f 17 e5 3d 2c 82 11 3e 72 15 0c 3e
       0.06014924 0.111860745 0.14209813 0.13680056
000370 a2 1f 46 be b4 14 02 3e 2b 78 b9 3d 7e 40 88 3e
       -0.19348004 0.1270321 0.09056123 0.26611704
000380 54 a6 3d be 98 b3 32 be 25 7b 39 3e de ad 3e be
       -0.1852048 -0.17451322 0.18113382 -0.18621013
000390 cc c9 04 3e 34 86 d6 39 44 80 d8 3d fb 28 09 bc
       0.12967604 0.0004091725 0.1057134 -0.008371587
0003a0 57 92 2d 3e 5b db 9b 3d 52 b6 c0 3d 75 d7 9b 3d
       0.16950355 0.07610198 0.09409775 0.076094545
0003b0 9d ee b5 bc 65 4a c7 bd b1 74 48 3e 17 69 32 bd
       -0.022208506 -0.097309865 0.19575764 -0.043557253
0003c0 e2 93 2b be 4f 2b cb bd a2 b2 78 3d 95 c8 e9 bd
       -0.16755632 -0.0992037 0.060717233 -0.11415211
0003d0 5a a2 f7 3d 61 d7 63 be d9 35 2d be a5 2c 9b be
       0.12091513 -0.2225013 -0.16915073 -0.303075
0003e0 cd 82 2a be 03 5e 9c be f0 e4 00 3e 58 eb c9 bd
       -0.16651459 -0.30540475 0.12587333 -0.098593414
0003f0 04 55 1f be a1 f6 32 be 57 45 61 3d 3c 8f 2a bd
       -0.15559775 -0.17476894 0.05499777 -0.041640505

fc.bias f4 [103]
000000 d5 ab e2 3c ff 6d c6 bd c3 a3 31 bd 1c bb a3 bc
       0.027669827 -0.09688949 -0.043369066 -0.019986682
000010 0e c9 92 3c d4 64 9e bd bb d6 2b bc 87 3e e8 3c
       0.017918136 -0.07734075 -0.010488207 0.028350128
000020 3d 9a ed 3c c3 db 0e 3c d8 e6 85 3d e6 96 c9 bb
       0.02900421 0.008719387 0.065381706 -0.0061520217
000030 c6 ae 1f be 0c 3e 66 bd 15 f8 04 be ce 0a 91 3c
       -0.15594015 -0.056211516 -0.12985261 0.017705347
000040 29 c3 89 bd c9 b0 d4 bd d3 af fa bd 6a 98 f9 bc
       -0.06726677 -0.103852816 -0.12240567 -0.030468185
000050 c0 70 d6 bd b4 0a db bd d2 cc 42 ba 68 34 c5 3c
       -0.10470724 -0.10695401 -0.00074310333 0.02407284
000060 8e 70 35 bd 49 4e c6 3d 6c 15 18 3e 24 43 e3 bd
       -0.044296794 0.096829005 0.14851922 -0.110967904
000070 6d 6c 0a 3e 38 f2 42 bd a5 58 73 3d 89 28 56 3c
       0.13517924 -0.04759428 0.05941071 0.013071188
000080 0f 55 9b 3c 9b d2 f9 bb bb 6f 8f bd 09 c7 c5 bc
       0.018961458 -0.007623983 -0.07003733 -0.024142759
000090 07 d7 34 3c d0 ef f7 3c 92 d9 5f bd 7b 9d 1f 3d
       0.011037595 0.030265719 -0.05465085 0.038968544
0000a0 7d 54 02 3e e9 6d ff bc 44 92 80 bd 4f 43 8d bc
       0.12727542 -0.031180339 -0.06277898 -0.01724401
0000b0 0d 94 20 bd 2c c2 f8 bd 5f b9 c0 bc ab 95 c7 3d
       -0.039203692 -0.1214641 -0.023525892 0.09745344
0000c0 28 d3 29 3d 01 ec 34 bd 13 82 05 bd d4 f4 41 bd
       0.04146114 -0.044170383 -0.03259475 -0.047352627
0000d0 4c 95 11 be b9 7e 05 39 a3 21 40 3c ab ce 2f bd
       -0.14217108 0.00012731076 0.01172677 -0.042921703
0000e0 6f 4c 77 bd 5d c5 71 3c 29 e8 51 3c 8d 97 2e bb
       -0.060375627 0.014756528 0.012811699 -0.0026640624
0000f0 90 f2 9a bc 58 90 07 be ad 7d 85 bc f7 7f 3d 3d
       -0.018914491 -0.13238657 -0.016295278 0.046264615
000100 d0 48 a0 3d f1 ea f8 3b 08 66 c6 bd fc 1d f5 bd
       0.07826388 0.0075963666 -0.0968743 -0.1196861
000110 1f e4 b4 bd 29 17 73 bd d4 cf 44 3d d0 d6 4d bd
       -0.08832573 -0.05934826 0.048049763 -0.05025369
000120 c9 10 08 bd 52 eb 92 3c 5c e9 df bc df 31 cd bd
       -0.033219133 0.017934475 -0.027332954 -0.10019278
000130 51 98 92 bd b1 95 76 bd be 7b a2 bd 7f cb ba bd
       -0.07157958 -0.06020135 -0.07933758 -0.09120845
000140 a2 57 d0 bd e9 1c ca bc d4 2a 0d bc 7e 49 0f 3b
       -0.10172965 -0.024671989 -0.008616168 0.0021863873
000150 af a5 53 3c 8d 7c fb bc b9 ec b4 bd 02 86 cd bd
       0.01291792 -0.030699039 -0.08834214 -0.100353256
000160 4c bc e1 bc a6 bd 82 bd 13 e9 1b 3d 69 94 3d bb
       -0.027555607 -0.06383829 0.038064074 -0.002892757
000170 98 63 83 3a 51 ae ae bd cd 96 3d bd 6a 21 37 bd
       0.0010024188 -0.08529342 -0.046286393 -0.0447096
000180 5a e5 cd bc 7b 4f e3 bd 78 af e3 bc ca 54 00 3e
       -0.025133777 -0.11099144 -0.027793631 0.12532344
000190 71 bc fe 3c 19 a9 5d 3d c2 bd 05 bd
       0.031095715 0.054116342 -0.03265167
